_________________________________________________________________
Layer (type)                 Output Shape              Param #   
=================================================================
embedding_1 (Embedding)      (None, 101, 50)           253993250 
_________________________________________________________________
bidirectional_1 (Bidirection (None, 16)                3776      
_________________________________________________________________
dense_1 (Dense)              (None, 1)                 17        
=================================================================
Total params: 253,997,043
Trainable params: 3,793
Non-trainable params: 253,993,250



61.80%









_________________________________________________________________
Layer (type)                 Output Shape              Param #   
=================================================================
embedding_1 (Embedding)      (None, 101, 50)           253993250 
_________________________________________________________________
bidirectional_1 (Bidirection (None, 16)                3776      
_________________________________________________________________
dense_1 (Dense)              (None, 1)                 17        
=================================================================
Total params: 253,997,043
Trainable params: 3,793
Non-trainable params: 253,993,250
_________________________________________________________________
None
Epoch 1/8
1900/1900 [==============================] - 29s 15ms/step - loss: 0.6992 - acc: 0.5200
Epoch 2/8
1900/1900 [==============================] - 27s 14ms/step - loss: 0.6912 - acc: 0.5353
…
